_________________________________________________________________
 Layer (type)                Output Shape              Param #   
=================================================================
 conv2d (Conv2D)             (None, 17, 17, 32)        320       
                                                                 
 max_pooling2d (MaxPooling2  (None, 8, 8, 32)          0         
 D)                                                              
                                                                 
 conv2d_1 (Conv2D)           (None, 6, 6, 64)          18496     
                                                                 
 max_pooling2d_1 (MaxPoolin  (None, 3, 3, 64)          0         
 g2D)                                                            
                                                                 
 flatten (Flatten)           (None, 576)               0         
                                                                 
 dense (Dense)               (None, 128)               73856     
                                                                 
 dense_1 (Dense)             (None, 1)                 129       
                                                                 
=================================================================
Total params: 92801 (362.50 KB)
Trainable params: 92801 (362.50 KB)
Non-trainable params: 0 (0.00 Byte)
_________________________________________________________________
Found 5583 images belonging to 2 classes.
Found 1394 images belonging to 2 classes.
…
